…
    "model.compile(optimizer = 'adam', loss = 'mean_squared_error')\n",
    "\n",
    "model.fit(x_train,y_train, epochs= 50, batch_size=32, verbose=1)"
   ]
  },
  {
   "cell_type": "code",
   "execution_count": 75,
   "id": "c8c1d043",
   "metadata": {},
   "outputs": [
    {
     "name": "stdout",
     "output_type": "stream",
     "text": [
      "Model: \"sequential_11\"\n",
      "_________________________________________________________________\n",
      " Layer (type)                Output Shape              Param #   \n",
      "=================================================================\n",
      " lstm_16 (LSTM)              (None, 100, 50)           10400     \n",
      "                                                                 \n",
      " dropout_16 (Dropout)        (None, 100, 50)           0         \n",
      "                                                                 \n",
      " lstm_17 (LSTM)              (None, 100, 60)           26640     \n",
      "                                                                 \n",
      " dropout_17 (Dropout)        (None, 100, 60)           0         \n",
      "                                                                 \n",
      " lstm_18 (LSTM)              (None, 100, 80)           45120     \n",
      "                                                                 \n",
      " dropout_18 (Dropout)        (None, 100, 80)           0         \n",
      "                                                                 \n",
      " lstm_19 (LSTM)              (None, 120)               96480     \n",
      "                                                                 \n",
      " dropout_19 (Dropout)        (None, 120)               0         \n",
      "                                                                 \n",
      " dense_3 (Dense)             (None, 1)                 121       \n",
      "                                                                 \n",
      "=================================================================\n",
      "Total params: 178761 (698.29 KB)\n",
      "Trainable params: 178761 (698.29 KB)\n",
      "Non-trainable params: 0 (0.00 Byte)\n",
      "_________________________________________________________________\n"
     ]
    }
   ],
   "source": [
…
